…
=5, save_txt=False, scale=0.5, seed=0, shear=0.0, show=False, show_boxes=True, show_conf=True, show_labels=True, simplify=True, single_cls=False, source=None, split=val, stream_buffer=False, task=detect, time=None, tracker=botsort.yaml, translate=0.1, val=True, verbose=True, vid_stride=1, visualize=False, warmup_bias_lr=0.1, warmup_epochs=3.0, warmup_momentum=0.8, weight_decay=0.0005, workers=8, workspace=None
Overriding model.yaml nc=80 with nc=4

                   from  n    params  module                                       arguments
  0                  -1  1      2320  ultralytics.nn.modules.conv.Conv             [3, 80, 3, 2]
  1                  -1  1    115520  ultralytics.nn.modules.conv.Conv             [80, 160, 3, 2]
  2                  -1  3    436800  ultralytics.nn.modules.block.C2f             [160, 160, 3, True]
  3                  -1  1    461440  ultralytics.nn.modules.conv.Conv             [160, 320, 3, 2]
  4                  -1  6   3281920  ultralytics.nn.modules.block.C2f             [320, 320, 6, True]
  5                  -1  1   1844480  ultralytics.nn.modules.conv.Conv             [320, 640, 3, 2]
  6                  -1  6  13117440  ultralytics.nn.modules.block.C2f             [640, 640, 6, True]
  7                  -1  1   3687680  ultralytics.nn.modules.conv.Conv             [640, 640, 3, 2]
  8                  -1  3   6969600  ultralytics.nn.modules.block.C2f             [640, 640, 3, True]
  9                  -1  1   1025920  ultralytics.nn.modules.block.SPPF            [640, 640, 5]
 10                  -1  1         0  torch.nn.modules.upsampling.Upsample         [None, 2, 'nearest']
 11             [-1, 6]  1         0  ultralytics.nn.modules.conv.Concat           [1]
 12                  -1  3   7379200  ultralytics.nn.modules.block.C2f             [1280, 640, 3]
 13                  -1  1         0  torch.nn.modules.upsampling.Upsample         [None, 2, 'nearest']
 14             [-1, 4]  1         0  ultralytics.nn.modules.conv.Concat           [1]
 15                  -1  3   1948800  ultralytics.nn.modules.block.C2f             [960, 320, 3]
 16                  -1  1    922240  ultralytics.nn.modules.conv.Conv             [320, 320, 3, 2]
 17            [-1, 12]  1         0  ultralytics.nn.modules.conv.Concat           [1]
 18                  -1  3   7174400  ultralytics.nn.modules.block.C2f             [960, 640, 3]
 19                  -1  1   3687680  ultralytics.nn.modules.conv.Conv             [640, 640, 3, 2]
 20             [-1, 9]  1         0  ultralytics.nn.modules.conv.Concat           [1]
 21                  -1  3   7379200  ultralytics.nn.modules.block.C2f             [1280, 640, 3]
 22        [15, 18, 21]  1   8721820  ultralytics.nn.modules.head.Detect           [4, [320, 640, 640]]
Model summary: 209 layers, 68,156,460 parameters, 68,156,444 gradients, 258.1 GFLOPs

Transferred 589/595 items from pretrained weights
Freezing layer 'model.22.dfl.conv.weight'
AMP: running Automatic Mixed Precision (AMP) checks...
AMP: checks passed
train: Fast image access  (ping: 0.10.0 ms, read: 295.761.3 MB/s, size: 228.7 KB)
train: Scanning C:\Users\hperu\fbvision\yolo_inference\football-players-det
…
